exercise_3/models/rnn_mnist_nn.model (torch_old, 330899 bytes, 6 tensors)

weight_ih_l0 f4 [512, 28]
0	0xbca53516	-0.020166915
1	0xbd46dc0c	-0.048549697
2	0xbd2425bd	-0.040075053
3	0x3d291dd4	0.041288212
4	0xbdae4370	-0.085089564
5	0xbd83cbe6	-0.06435375
6	0xbdb937f2	-0.09043874
7	0x3c5190da	0.012790883
8	0xbe20a066	-0.15686187
9	0xbd97b8c3	-0.074082874
10	0xbe978150	-0.29590845
11	0xbe453413	-0.19258146
12	0x3c8789df	0.016545234
13	0x3d10b4d2	0.035328694
14	0x3d7ab105	0.061203975
15	0x3e6bb888	0.23019612
16	0x3df4fb13	0.11961951
17	0x3e0cf1e6	0.13764152
18	0xbe0e8d81	-0.13921167
19	0xbe0f5786	-0.13998231
20	0xbd368066	-0.044556044
21	0xbdc47098	-0.09591788
22	0xbe472a3e	-0.19449708
23	0xbe02518f	-0.12726425
24	0xbdb80d32	-0.08986892
25	0xbd4b9b8b	-0.049708884
26	0xbd0df229	-0.03465477
27	0x3da9596d	0.0826901
28	0x3ce49247	0.027901782
29	0x3d729b84	0.059230343
30	0x3cf6f624	0.030146666
31	0x3de74123	0.11291721
32	0xbc5141b0	-0.012772009
33	0x3dad6356	0.084662125
34	0x3d7467fa	0.059669472
35	0x3d0bf266	0.034166716
36	0x3e1f658d	0.15566082
37	0xbe31f62b	-0.17379062
38	0xbe85a733	-0.26104125
39	0xbebda29f	-0.37038133
40	0xbeacf62a	-0.33781558
41	0xbe166fea	-0.1469113
42	0x3dcc4688	0.0997439
43	0x3d5de309	0.054171596
44	0x3dbc1b8c	0.09184942
45	0x3dffad05	0.12484173
46	0x3de4806e	0.111573085
47	0x3e5b7f9d	0.214354
48	0x3dd782b1	0.10522974
49	0x3e151d16	0.14561877
50	0x3d5f564b	0.054525655
51	0x3e674626	0.22585353
52	0x3e3e75df	0.18599652
53	0x3da2abf1	0.079429515
54	0x3df69a7b	0.120411836
55	0x3b7fbfb3	0.0039024174
56	0xbcd20343	-0.025636321
57	0x3d82e19c	0.06390688
58	0x3a987a23	0.0011633079
59	0x3cedeebe	0.029044505
60	0xbc75a8e6	-0.014993882
61	0xbc83da71	-0.016095372
62	0x3c54c33f	0.012986003
63	0xbd382633	-0.044958305
64	0xbe224f2b	-0.15850513
65	0xbd35c31f	-0.044375535
66	0xbdcdd4be	-0.10050343
67	0xbd3e5673	-0.046469163
68	0x3c529c6e	0.012854679
69	0x3e31dda1	0.17369701
70	0x3f0e9034	0.55688787
71	0x3f0e9e4d	0.557103
72	0x3da83134	0.0821251
73	0xbd6a4a67	-0.05719986
74	0xbee60fa9	-0.44933823
75	0xbe92ada8	-0.28648114
76	0x3d3a47c7	0.04547861
77	0x3e7290f2	0.23688105
78	0x3d7ac2ad	0.061220814
79	0x3e118522	0.14210942
80	0x3e028098	0.12744367
81	0x3c914cee	0.017736878
82	0x3d42f8d4	0.047600582
83	0x3c186338	0.009300999
84	0x3d7a9207	0.06117442
85	0xbd49cfc3	-0.049270403
86	0xbd09b061	-0.033615474
87	0xbd93c087	-0.07214456
88	0x3bd22fa6	0.0064143715
89	0x3d93f786	0.07224946
90	0xbc931da1	-0.017958464
91	0xbd93a143	-0.072084926
92	0xbd5d8915	-0.05408581
93	0xbe36d411	-0.17854334
94	0xbe2cdf10	-0.16881967
95	0xbe7f0ec4	-0.24907976
96	0xbdbfadd1	-0.09359325
97	0x3e969795	0.29412523
98	0x3e690e3d	0.22759338
99	0x3e97c271	0.29640535
100	0x3e146e27	0.14495145
101	0x3e302a59	0.17203654
102	0x3e3e3138	0.18573463
103	0x3e6aa1c5	0.22913273
104	0x3e3586a6	0.17727146
105	0xbd10141f	-0.03517544
106	0x3d28a02e	0.041168384
107	0xbd6ecfba	-0.058303572
108	0xbcfe2003	-0.031021124
109	0x3c9f1712	0.01942018
110	0xbdc22e43	-0.0948148
111	0x3d8f04c9	0.069833346
112	0xbe0ab536	-0.13545689
113	0xbe3616c5	-0.17782123
114	0xbe43fcd4	-0.19139415
115	0xbd9b54dc	-0.07584545
116	0xbdcf7dee	-0.10131441
117	0x3dabd3c4	0.083900005
118	0x3d0dffd0	0.03466779
119	0xbd9f6671	-0.07783211
120	0xbe4cbc44	-0.19993693
121	0xbe204611	-0.15651728
122	0x3da7b45b	0.08188697
123	0xbc0d0ab3	-0.008608508
124	0x3d68ac90	0.056805193
125	0x3923a0a1	0.0001560473
126	0x3e5fb929	0.21847977
127	0x3e2ff3ee	0.17182896
128	0x3e697893	0.22799902
129	0x3ddc467a	0.1075563
130	0x3dcc948c	0.099892706
131	0xbca1d6bb	-0.019755712
132	0x3dcd28bf	0.10017537
133	0xbca5133f	-0.020150779
134	0x3cc4cb3d	0.024022693
135	0x3d5197eb	0.05117027
136	0xbc20152d	-0.009770674
137	0xbd813124	-0.06308201
138	0xbdb8e205	-0.09027485
139	0xbdf0efc9	-0.117644854
140	0x3c87c457	0.016573114
141	0xbcf19e33	-0.02949438
142	0xbcfbb99a	-0.03072815
143	0x3bb99264	0.005663203
144	0x3d400d5e	0.046887748
145	0xbca7d3c4	-0.02048672
146	0xbc9ec2f6	-0.019380074
147	0x3b8857bf	0.004160851
148	0xbe20c245	-0.15699108
149	0xbb9d1065	-0.004793214
150	0xbdff8cd0	-0.1247803
151	0xbdee5544	-0.11637357
152	0xbe8b6919	-0.2722862
153	0xbee3ccba	-0.4449213
154	0xbe43f5b2	-0.19136694
155	0x3dca452a	0.09876473
156	0x3dd28925	0.102800645
157	0x3d249dc9	0.04018954
158	0xbdd05203	-0.101718925
159	0xbd484357	-0.048892345
160	0x3cd94f56	0.026527088
161	0x3e2cf5f0	0.16890693
162	0x3e016e17	0.12639652
163	0x3df284af	0.11841714
164	0xbc9f3229	-0.019433098
165	0x3c5e7826	0.01357845
166	0x3c349ea0	0.011024147
167	0xbd5d0d53	-0.053967785
168	0xbcbfb97f	-0.023403881
169	0xbdf749d5	-0.12074629
170	0xbc377018	-0.011196159
171	0xbe079299	-0.13239516
172	0xbe1374a6	-0.14399967
173	0xbd9222bc	-0.07135531
174	0xbe5bf7fb	-0.21481316
175	0xbe6cf25d	-0.23139329
176	0xbe95beef	-0.29247233
177	0xbe56ebaf	-0.20988344
178	0xbe58cb8e	-0.211714
179	0xbe7d7ccd	-0.24754639
180	0xbe5e4aa9	-0.21708168
181	0xbd0dfe9f	-0.034666654
182	0x3ca6a865	0.020343969
183	0x3d6eb152	0.058274575
184	0xbc6d20c3	-0.014473143
185	0xbd61b834	-0.05510731
186	0x3e0375df	0.12837933
187	0x3dc173db	0.09445926
188	0x3e5496f6	0.20760712
189	0x3e15cfa9	0.14629997
190	0x3e18b0c4	0.1491118
191	0xbcdf2afb	-0.027242174
192	0xbd5ab5ba	-0.053395964
193	0xbd21284d	-0.039345074
194	0xbca751f9	-0.02042483
195	0xbc280a06	-0.010256296
196	0x3cdbc700	0.026828289
197	0x3daf28ac	0.085526794
198	0x3d6f8a83	0.058481704
199	0xbcf4181c	-0.029796652
200	0x3da104f2	0.07862271
201	0xbda8f2e6	-0.08249454
202	0xbd324c58	-0.04352984
203	0xbdb4ccdd	-0.08828137
204	0x3d08ba5e	0.03338086
205	0xbd3951dd	-0.045244087
206	0x3d8243a1	0.063605554
207	0x3d954ea1	0.07290388
208	0xbd1bcc51	-0.03803665
209	0xbda0ac51	-0.07845367
210	0xbe07e35d	-0.13270326
211	0xbe66bcef	-0.2253301
212	0xbdeaec6d	-0.11470876
213	0xbe61a99d	-0.22037359
214	0xbe19a7a5	-0.15005358
215	0xbdfcde9a	-0.123471454
216	0xbd918f4c	-0.0710741
217	0xbe011e1e	-0.12609145
218	0xbdf62c4a	-0.12020166
219	0x3d3ff60d	0.04686551
220	0x3e0b57bd	0.13607688
221	0x3dc5ac31	0.096519835
222	0x3d6c5fc8	0.05770853
223	0x3de51e21	0.11187387
224	0xbce04a88	-0.02737929
225	0x3dd9280a	0.1060334
226	0x3d5fb6fb	0.054617863
227	0xbbbec481	-0.005821765
228	0x3dea0615	0.11426941
229	0xbc78f857	-0.015195928
230	0x3d569a42	0.052393205
231	0x3d9ca8b9	0.07649369
232	0x3d9a5737	0.07536166
233	0x3c9ab8db	0.018886974
234	0x3d251cbe	0.040310614
235	0xbbe5df5e	-0.007015153
236	0x3df3084b	0.11866816
237	0x3d8d3c40	0.068962574
238	0xbd697f96	-0.05700644
239	0x3e67a654	0.22622043
240	0x3ebb7d06	0.36618823
241	0x3f049bfa	0.518005
242	0x3edcd61a	0.43132097
243	0x3e9f23a2	0.31081873
244	0x3e14a2a4	0.14515167
245	0xbcb3ccd2	-0.021948252
246	0x3e3fb93d	0.18723007
247	0x3e2a7dc3	0.16649537
248	0x3e47dd88	0.19518101
249	0x3d3b2369	0.045688067
250	0x3d92c62a	0.07166703
251	0xbd21ab58	-0.039470047
252	0x3e3ae3f0	0.18251014
253	0x3d8379de	0.06419729
254	0x3d4ec6cb	0.050482552
255	0x3e0c1f53	0.13683824

weight_hh_l0 f4 [512, 128]
0	0xbe149262	-0.14508966
1	0xbe230d34	-0.15923005
2	0x3e33e0dd	0.17566247
3	0x3d29a33b	0.041415434
4	0xbb1605b0	-0.0022891574
5	0x3cf4a311	0.029862912
6	0x3c6d9f94	0.014503378
7	0x3ddce7f4	0.10786429
8	0x3d2f995c	0.042870864
9	0x3c37e33e	0.011223612
10	0xbe3ea805	-0.18618782
11	0x3e243fe6	0.1604
12	0xbe1ca2be	-0.15296456
13	0xbc91e529	-0.017809467
14	0xbe70a32f	-0.2349975
15	0x3c6d6d3d	0.0144913765
16	0xbdb942cf	-0.09045946
17	0xbdc01b35	-0.09380189
18	0x3e019917	0.12656055
19	0xbe3c9f61	-0.18420173
20	0xbe9fbe55	-0.311999
21	0xbd1ad002	-0.037796028
22	0xbe31a1d4	-0.17346889
23	0xbd8e8467	-0.069588475
24	0x3d2c658c	0.04208903
25	0xbcd15e59	-0.025557684
26	0xba69cb3b	-0.00089185283
27	0x3e3e1c5f	0.1856551
28	0xbe285bd0	-0.16441274
29	0x3d5e0f28	0.054213673
30	0x3e6dcab7	0.23221861
31	0xbda053ec	-0.07828507
32	0xbe34aabd	-0.17643256
33	0xbe18118d	-0.14850445
34	0x3e2b0db4	0.16704446
35	0xbde4d81c	-0.11174032
36	0xbbbce0f0	-0.0057641193
37	0x3e4a31d1	0.19745566
38	0xbe5c5fee	-0.2152097
39	0xbd9ef62b	-0.077617966
40	0x3dbbbc1f	0.091667406
41	0xbd4e6126	-0.050385617
42	0xbd2d4613	-0.042303156
43	0x3c75113f	0.014957725
44	0xbe1531ad	-0.14569731
45	0x3e8630b8	0.26209044
46	0x3d2f0297	0.04272708
47	0x3dc712f8	0.09720415
48	0x3c47d9b0	0.012197897
49	0xbdca2da0	-0.098719835
50	0xbe0b3022	-0.1359258
51	0x3dfd74cd	0.123757936
52	0xbd0a44e5	-0.03375711
53	0x3d78a075	0.0606999
54	0xbe530484	-0.20607191
55	0xbd9394ea	-0.072061375
56	0x3dc5aa11	0.09651578
57	0xbdc82df4	-0.0977439
58	0x3d5d298b	0.053994697
59	0x3e31be88	0.17357838
60	0xbdd213ce	-0.10257684
61	0x3db3c2b6	0.087773725
62	0x3e54b30d	0.20771427
63	0xbdce5e7b	-0.100766145
64	0x3d90a6c0	0.07063055
65	0x3e6f5be2	0.23374894
66	0x3e58481b	0.21121256
67	0xbd817d38	-0.06322712
68	0x3dd13886	0.10215859
69	0x3e1b45a8	0.1516329
70	0x3cd82ad7	0.026387615
71	0x3cdcd149	0.026955264
72	0xbdc63641	-0.09678317
73	0xbdbf31df	-0.09335684
74	0x3cc1081a	0.023563433
75	0xbe21eca4	-0.15812927
76	0xbe1d8d29	-0.1538588
77	0xbdae4376	-0.08508961
78	0xbdbe0d82	-0.0927992
79	0x3dbc61c1	0.091983326
80	0xbdeb80f6	-0.11499207
81	0xbe66b5a6	-0.22530231
82	0xbd443401	-0.047901157
83	0xbc778b94	-0.015108962
84	0x3e3b0bdb	0.18266241
85	0xbdc3be77	-0.09557813
86	0x3c2ef327	0.010678089
87	0x3e1e1b8f	0.154402
88	0x3e0b39d1	0.13596274
89	0xbb4a0d1b	-0.0030830565
90	0x3d8a0aa9	0.067403145
91	0x3e814c59	0.2525356
92	0x3e6b58b8	0.22983062
93	0x3d9e3c73	0.077263735
94	0xbe2999ea	-0.1656262
95	0xbdff972c	-0.124800056
96	0x3e83f944	0.25776112
97	0x3c0e4bab	0.008685033
98	0xbe17dca6	-0.14830264
99	0x3cabe8ff	0.020985125
100	0xbd483067	-0.048874285
101	0x3eaba75d	0.33526126
102	0xbda19d58	-0.07891339
103	0x3dd0f74c	0.10203418
104	0x3e071e5e	0.13195178
105	0xbd8dde61	-0.06927181
106	0xbe379bbc	-0.17930502
107	0x3d986b56	0.07442348
108	0x3dc7dc3f	0.097588055
109	0x3e191aae	0.14951584
110	0xbc8c6b26	-0.017140936
111	0x3d30697b	0.043069344
112	0xbde4c734	-0.111708075
113	0x3d83176e	0.06400953
114	0x3b7d8183	0.0038681931
115	0x3e1c7b50	0.15281415
116	0x3de00f57	0.10940426
117	0x3d991705	0.07475094
118	0x3c088855	0.008333285
119	0xbe691de4	-0.22765309
120	0x3d346831	0.044044677
121	0xbdf6a5f8	-0.12043375
122	0xbe20c9a0	-0.15701914
123	0xbcbd3f8a	-0.023101587
124	0xbdbccfce	-0.09219323
125	0x3cfa9a03	0.030591017
126	0x3dc08199	0.09399719
127	0xbd94f6bf	-0.072736256
128	0x3eae6a5c	0.3406552
129	0x3e50420a	0.20337692
130	0x3e5a0f94	0.21295005
131	0xbcc07bd1	-0.02349654
132	0xbd98b5bf	-0.0745654
133	0xbe15a537	-0.14613806
134	0xbd413aef	-0.047175344
135	0xbd229ddf	-0.03970134
136	0xbc89e5ae	-0.016833153
137	0xbdf5141c	-0.11966726
138	0x3e696b53	0.22794847
139	0x3e27ce7c	0.16387361
140	0xbe46e5af	-0.19423555
141	0xbdce9be0	-0.100883245
142	0x3d905e9a	0.07049294
143	0xbe1fcd4b	-0.15605657
144	0xbd939868	-0.072068036
145	0x3e6428ab	0.22281139
146	0xbe3d7823	-0.1850286
147	0x3d442f6f	0.0478968
148	0xbd4522d3	-0.048128914
149	0xbe3b5dbf	-0.1829748
150	0x3e543dde	0.20726725
151	0x3d9a88b5	0.07545606
152	0xbd1287b2	-0.03577394
153	0x3db95572	0.090495005
154	0x3e2537ee	0.16134617
155	0xbd890954	-0.06691232
156	0x3d7ae9e4	0.06125821
157	0xbe519947	-0.20468627
158	0x3da3cd43	0.07998135
159	0xbe834b79	-0.2564352
160	0x3e940e38	0.28917098
161	0x3e4ad779	0.19808759
162	0xbe5837ff	-0.21115111
163	0xbe31625b	-0.17322676
164	0xbe3fb028	-0.18719542
165	0x3e05a391	0.13050677
166	0x3d8e5980	0.069506645
167	0x3da59e9b	0.08086892
168	0x3e210030	0.15722728
169	0xbe662864	-0.22476345
170	0xbd7aa8df	-0.061196204
171	0x3e805338	0.2506349
172	0x3e05cd4f	0.130666
173	0x3dec3b2b	0.11534723
174	0xbda973e0	-0.082740545
175	0x3e6f74b7	0.23384367
176	0xbe3a53f2	-0.18196085
177	0x3e52e0aa	0.20593515
178	0xbdf98441	-0.121834286
179	0x3cee864b	0.02911677
180	0xbe3157cc	-0.17318648
181	0xbd86865c	-0.06568596
182	0xbe2ec38c	-0.17066783
183	0xbd222551	-0.03958637
184	0xbd12a134	-0.035798267
185	0x3d124173	0.03570695
186	0xbd77c709	-0.06049255
187	0x3e19fabd	0.15037055
188	0x3d5ea9e1	0.054361228
189	0x3e5523fd	0.2081451
190	0xbebb7a28	-0.36616635
191	0xbe580859	-0.21096934
192	0xbe3fdab2	-0.1873577
193	0x3d3e675c	0.04648529
194	0xbd9852e2	-0.07437684
195	0x3dd5df4d	0.10442982
196	0xbb803407	-0.003912452
197	0xbe42ddfd	-0.19029994
198	0x3e3db899	0.1852745
199	0xbcdff902	-0.027340416
200	0x3e04f600	0.12984467
201	0x3e5bb483	0.21455579
202	0xbdff0769	-0.12452585
203	0x3de492c8	0.11160809
204	0xbd9fe16f	-0.0780667
205	0x3e0dfe24	0.13866478
206	0xbdd3e64a	-0.103466585
207	0xbc020a1a	-0.007936979
208	0xbd91400e	-0.070922956
209	0xbca5be2f	-0.020232288
210	0xbd28a8dd	-0.041176666
211	0x3b80b722	0.003928081
212	0x3db6d855	0.08927981
213	0xbdb7016f	-0.0893582
214	0xbbb8da31	-0.005641245
215	0xbe11fe67	-0.14257203
216	0xbe21158b	-0.15730874
217	0xbdb0e75d	-0.08637879
218	0x3dcfd7d8	0.10148591
219	0xbe42ea18	-0.19034612
220	0xbdb1fbf0	-0.086906314
221	0xbea11971	-0.31464723
222	0x3ddd8706	0.10816769
223	0xbe13bcff	-0.14427565
224	0xbe69519f	-0.22785042
225	0x3c641356	0.013920626
226	0xbdb8e5b5	-0.09028188
227	0xbd4290f8	-0.047501534
228	0xbdbd158e	-0.09232627
229	0x3d1e80e2	0.03869713
230	0x3dbbb450	0.09165251
231	0x3e511d69	0.20421375
232	0xbe0e9c6f	-0.13926862
233	0x3db11eb6	0.08648436
234	0x3d318e84	0.043348804
235	0x3bebdaee	0.0071977293
236	0x3e40f310	0.18842721
237	0x3cccbd1e	0.024992522
238	0x3d06b80b	0.03289036
239	0xbd9d1e91	-0.07671846
240	0xbd859247	-0.06522041
241	0xbcc35539	-0.023844348
242	0xbd5bd3cb	-0.05366878
243	0xbe34ff0a	-0.17675415
244	0xbdc1265a	-0.09431143
245	0x3e239334	0.15974122
246	0x3c2fd95b	0.010732974
247	0xbd8fdc41	-0.07024432
248	0xbde10ed8	-0.10989159
249	0x3e173fc0	0.14770412
250	0x3cb43f86	0.022002947
251	0xbc163fcd	-0.009170485
252	0x3e23bdf0	0.15990424
253	0x3cb1b890	0.021694452
254	0x3e551936	0.20810398
255	0x3d8567a5	0.06513909

bias_ih_l0 f4 [512]
0	0x3cb7d055	0.022438208
1	0xbdf2f9da	-0.11864062
2	0xbd19b414	-0.03752525
3	0xbca216da	-0.019786287
4	0x3d69292f	0.05692404
5	0xbde15673	-0.11002817
6	0x3d93659e	0.07197116
7	0xbd80736e	-0.062720165
8	0x3c276e4d	0.010219169
9	0xbe1c5ca3	-0.15269713
10	0xbde1dfd9	-0.11029024
11	0x3e010759	0.12600459
12	0xbb992328	-0.0046733804
13	0xbcb81609	-0.022471445
14	0xbe14a26e	-0.14515087
15	0x3d3afcfa	0.045651414
16	0xbd22eb2b	-0.039775055
17	0x3da2984f	0.07939207
18	0xbd395815	-0.045250017
19	0xbc10d7c7	-0.008840508
20	0xbde8c426	-0.11365537
21	0x3c5d511f	0.01350811
22	0xbdb8c49d	-0.09021876
23	0x3abef874	0.0014569894
24	0x3ceaeb51	0.02867666
25	0xbb5b4cba	-0.003346248
26	0xbe1936de	-0.14962336
27	0x3d75b4d5	0.059986908
28	0x3ccb366f	0.02480623
29	0xbd0b972b	-0.034079712
30	0x3cbf9b3d	0.023389453
31	0x3dff9bb7	0.12480872
32	0x3ddfcfb3	0.10928287
33	0xbd7e2b91	-0.062053267
34	0xbd83e6b2	-0.06440486
35	0x3ced1fb4	0.028945781
36	0x3db8abdd	0.09017155
37	0x3bec9de4	0.0072209705
38	0x3cac2f60	0.021018684
39	0xbe7fb575	-0.24971564
40	0xbd2c1563	-0.042012583
41	0x3e34ed38	0.17668617
42	0xbd99a4cf	-0.07502138
43	0xbd8e745c	-0.069557875
44	0xbdb9c62f	-0.09071004
45	0x3d862fc9	0.06552083
46	0xbd6424c9	-0.055699144
47	0xbd5c673b	-0.053809386
48	0xbc7870a0	-0.015163571
49	0x3c9064b0	0.017626137
50	0xbce3b0bb	-0.027794233
51	0x3cbbac7f	0.022909401
52	0xbdd772b2	-0.10519923
53	0x3d1b2aed	0.037882734
54	0xbd83ac97	-0.06429403
55	0x3de90fcd	0.11379967
56	0xbc06e42c	-0.008233111
57	0xbe28f82c	-0.1650092
58	0x3c4859dd	0.012228456
59	0xbdb1510c	-0.086580366
60	0x3e30e02e	0.17273018
61	0x3df0f4f5	0.11765472
62	0xbd55a6ae	-0.05216091
63	0xbde55e4d	-0.11199627
64	0x3db43b6e	0.08800398
65	0xbe2f3b82	-0.17112544
66	0x3cb19107	0.0216756
67	0x3db43ea2	0.08801009
68	0xbe555ea1	-0.2083688
69	0xbd311fd6	-0.04324325
70	0xbdf567d4	-0.11982694
71	0x3cc4de30	0.024031729
72	0x3cd95c5d	0.0265333
73	0xbdbd6369	-0.092474766
74	0x3d5c2d86	0.053754352
75	0x3d30095c	0.042977676
76	0xbe25c788	-0.16189396
77	0xbd3c77a1	-0.046012525
78	0xbe168589	-0.14699377
79	0xbe1a17a3	-0.15048079
80	0xbd647f05	-0.055785198
81	0xbd486afb	-0.04893015
82	0xbe327e23	-0.1743093
83	0x3dcdd56f	0.10050475
84	0xbdc1eafd	-0.094686486
85	0x3ab5f8c6	0.0013883344
86	0x3d046870	0.03232616
87	0xbc9283e9	-0.017885165
88	0xbda3dd90	-0.08001244
89	0xbd75166e	-0.059835844
90	0xbc5e63bf	-0.013573586
91	0xbd9da5af	-0.07697617
92	0xbddee4d3	-0.108834885
93	0x3db08b99	0.08620376
94	0x3d94cc9f	0.07265591
95	0xbc2aefe8	-0.010433175
96	0xbd9d0a22	-0.07667948
97	0x3c884297	0.016633315
98	0xbe50b264	-0.2038055
99	0xbcd4ee78	-0.025992617
100	0xbe5dcb4e	-0.21659586
101	0xbe120975	-0.1426142
102	0xbd5c5d21	-0.053799752
103	0xbe0113a5	-0.1260515
104	0xbde8640c	-0.113472074
105	0x3d84763b	0.06467863
106	0xbda4f17e	-0.080538735
107	0x3d72ed9a	0.059308626
108	0x3d522146	0.051301263
109	0x3d98cd61	0.07461048
110	0xbda9557f	-0.0826826
111	0xbd83a4d2	-0.06427921
112	0xbd6b763e	-0.05748581
113	0xbd5d2d4b	-0.053998273
114	0xbd8d1147	-0.06888061
115	0xbaafba65	-0.001340699
116	0x3c1d0b77	0.009585253
117	0x3d9a4363	0.07532384
118	0xbdc4eab2	-0.09615077
119	0x3cb6a12c	0.02229365
120	0xbcf22957	-0.029560728
121	0x3c9aa73b	0.01887857
122	0xbd84b72c	-0.0648025
123	0xbd81b4d9	-0.06333322
124	0x3c3f2b55	0.011668046
125	0x3dce8736	0.10084383
126	0xbe153163	-0.14569621
127	0xbe354243	-0.17701058
128	0x3d32410e	0.043519072
129	0x3cb9a813	0.022663152
130	0xbc49a7e8	-0.012308098
131	0xbd9e3d0e	-0.07726489
132	0xbd8f4a75	-0.069966234
133	0x3d9741a2	0.07385565
134	0x3d398a0b	0.045297664
135	0x3c9d4441	0.019197585
136	0xbc5b9e49	-0.013404437
137	0xbc2e3bd7	-0.010634384
138	0x3de5507a	0.1119699
139	0x3e51b0cb	0.20477597
140	0x3d985fd6	0.07440154
141	0xbddbe091	-0.10736192
142	0x3d738789	0.05945543
143	0xbdbc1cb3	-0.091851614
144	0x3da323d2	0.079658166
145	0xbd360b33	-0.044444274
146	0x3c2d5278	0.010578744
147	0xbd1f5fef	-0.03890985
148	0xbd5538fc	-0.052056298
149	0x3cbf41ba	0.02334677
150	0x3b4fbd09	0.0031698367
151	0x3cb146e3	0.021640247
152	0x3d3aa367	0.04556599
153	0x3c90d7c2	0.017681006
154	0x3e2dbd41	0.16966726
155	0x3de9cde3	0.11416223
156	0x3d32ffb7	0.0437009
157	0x3da20e9a	0.07912941
158	0x3da084f4	0.07837859
159	0x3c00e4df	0.007867067
160	0xbc6206c7	-0.013795561
161	0xbe054ca3	-0.13017516
162	0xbc5e9fa7	-0.013587869
163	0x3de0f0d1	0.10983432
164	0xbdcd9736	-0.10038607
165	0x3e27e94c	0.1639759
166	0x3bfb37d5	0.007666568
167	0x3e2f703a	0.17132655
168	0x3ddb2bfb	0.10701748
169	0x3c2e9e78	0.010657899
170	0x3e7ca662	0.24672845
171	0xbb6526c6	-0.0034965738
172	0x3e1accea	0.15117231
173	0xbdfe4051	-0.12414611
174	0xbc2c2ec5	-0.010509198
175	0x3d0ae053	0.03390534
176	0xbde658dd	-0.11247418
177	0x3d31c177	0.043397393
178	0x3d38a6ee	0.04508107
179	0x3d149f3d	0.036284674
180	0x3ddb99e6	0.10722713
181	0xbdde70dd	-0.10861371
182	0xbd6fe8b5	-0.058571536
183	0xbddd239e	-0.10797809
184	0x3d991f91	0.07476724
185	0x3dc13c1e	0.094352946
186	0x3d243d04	0.04009725
187	0x3db8787b	0.09007355
188	0x3c9778b0	0.018490165
189	0x3ddb5119	0.107088275
190	0x3dcad0b8	0.09903091
191	0x3dcd18ea	0.100145176
192	0x3d8b5589	0.06803424
193	0x3d1ef721	0.0388099
194	0x3cbea782	0.023273233
195	0xbcfe0b11	-0.031011136
196	0xbd09c5df	-0.03363597
197	0x3e485bb6	0.19566235
198	0x3e722a18	0.2364887
199	0x3d872dcd	0.06600533
200	0x3df58366	0.11987953
201	0x3d91de89	0.07122523
202	0xbd063574	-0.03276582
203	0x3c6f87d4	0.014619786
204	0xbcd24115	-0.0256658
205	0x3d615034	0.05500813
206	0xbe10a8f0	-0.14126945
207	0x3e08ded0	0.13366246
208	0x3dd2e93d	0.10298393
209	0x3d21b39a	0.039477922
210	0x3d8abc68	0.06774217
211	0x3da8bbd3	0.082389496
212	0x3e7716fb	0.2412986
213	0xbd64c54c	-0.05585222
214	0x3d86e9ac	0.06587538
215	0xbd4d41c1	-0.050111536
216	0x3cec7e46	0.028868806
217	0x3db94f9c	0.090483874
218	0x39f8f8f6	0.00047487736
219	0x3de75c00	0.112968445
220	0x3c46cace	0.012133313
221	0xbdea9f06	-0.114561126
222	0xbc3a7ca2	-0.011382254
223	0xbe1a0463	-0.15040736
224	0x3e81ea9c	0.25374305
225	0xbb9f30b4	-0.004858101
226	0x3dc875ea	0.09788115
227	0xbd052a15	-0.032510836
228	0x3d8aeb24	0.06783131
229	0x3d616b4e	0.055033974
230	0x3d5d4a2f	0.054025825
231	0x3e57ba2a	0.2106711
232	0x3ca9ad50	0.020712525
233	0xbd2688a4	-0.040657654
234	0x3d4e8532	0.050419994
235	0xbc9c0bb5	-0.019048551
236	0x3dc2ecad	0.095177986
237	0xbc4332db	-0.01191398
238	0x3d89a240	0.067204
239	0x3d73216b	0.05935804
240	0xbda23e99	-0.07922096
241	0x3df49146	0.11941771
242	0x3d02049d	0.03174268
243	0x3ddd2c68	0.107994854
244	0xbdbd925c	-0.092564315
245	0xbdcd77dc	-0.10032627
246	0x3e0725d3	0.13198023
247	0xbb1415e2	-0.002259605
248	0x3db5b204	0.088718444
249	0x3dab42e7	0.0836237
250	0x3c470e7e	0.012149451
251	0xbd85aa45	-0.06526617
252	0x3c8e4b78	0.01736997
253	0xbd83ceb9	-0.064359136
254	0x3bc04ca1	0.00586851
255	0xbd8290ba	-0.06375261

bias_hh_l0 f4 [512]
0	0xbd2a3ac0	-0.041559935
1	0xbce2128e	-0.027596738
2	0xba9e3123	-0.0012069087
3	0xbcdafd57	-0.02673213
4	0x3d6862a2	0.05673469
5	0xbcd4eaaf	-0.025990812
6	0x3de059ea	0.1095465
7	0xbc84673f	-0.016162513
8	0x3ccd5fd2	0.025070105
9	0xbe51d22e	-0.20490333
10	0xbe2596e2	-0.16170838
11	0xbd0f0c92	-0.034924097
12	0x3cdf23fe	0.027238842
13	0xbd05b643	-0.03264452
14	0xbc6df2f2	-0.014523255
15	0x3d9644f2	0.07337369
16	0xbe00bf9d	-0.12573095
17	0x3c151c1e	0.009100942
18	0xbd6ded3c	-0.058087572
19	0xbd83ae29	-0.06429703
20	0xbdc42a5a	-0.095783904
21	0x3d099321	0.03358758
22	0xbd8213ab	-0.063514076
23	0xbe027ee4	-0.12743717
24	0xbd07dead	-0.033171345
25	0x3d0b42f3	0.033999395
26	0xbc2fe615	-0.010736008
27	0x3d7a7849	0.06114987
28	0x3cc0e761	0.02354783
29	0x3cee2494	0.029070176
30	0xbdfad65b	-0.12247916
31	0x3d6565bb	0.05600522
32	0xbca700e5	-0.020386169
33	0xbd1bec16	-0.038066946
34	0xbc0fd2ff	-0.008778333
35	0x3da30d44	0.079615146
36	0x3dc52a80	0.09627247
37	0x3da43545	0.08017973
38	0x3c2e94cc	0.010655593
39	0xbea24d00	-0.3169937
40	0x3bf08150	0.007339634
41	0x3e5f5cc1	0.21812727
42	0xbde4737f	-0.11154842
43	0x3b8caa40	0.0042927563
44	0xbc04195d	-0.008062688
45	0x3d87aaef	0.066244
46	0xbdc32f43	-0.09530499
47	0x3d7cb60b	0.061697047
48	0xbc80a7fc	-0.015705101
49	0xbb405209	-0.0029345772
50	0x3d825331	0.06363524
51	0x3d264dc8	0.04060152
52	0xbe24a65e	-0.16079089
53	0x3d766623	0.060156
54	0xbdaeb6f9	-0.08530993
55	0x3d78cd20	0.060742497
56	0x3a92fe81	0.0011214764
57	0xbe163eb0	-0.14672351
58	0xbce55499	-0.02799444
59	0xbd85ae72	-0.065274134
60	0x3e2bec4e	0.16789362
61	0x3cdf2ce9	0.027243095
62	0xbd805255	-0.062657036
63	0xbc9b7d1f	-0.01898056
64	0x3d949c74	0.072564036
65	0xbda79c7b	-0.08184143
66	0x3c3892f9	0.01126551
67	0x3d2b5459	0.041828487
68	0xbe1376ff	-0.14400862
69	0xbcb8ea7d	-0.02257275
70	0xbd25ebfe	-0.040508263
71	0x3d189ddc	0.03725992
72	0x3ca5ad74	0.02022431
73	0xbdc48427	-0.095955186
74	0x3d0dee7c	0.034651265
75	0xbd8fee6e	-0.07027899
76	0xbdfedcca	-0.12444456
77	0xbcfcc53e	-0.030855771
78	0xbe050891	-0.12991549
79	0xbdaebdba	-0.08532281
80	0xbded62ed	-0.11591134
81	0x3c9ecc57	0.019384546
82	0xbe008af7	-0.12553011
83	0x3db1f71e	0.08689712
84	0xbe282a11	-0.16422297
85	0x3d5e2077	0.05423018
86	0xbdb176ad	-0.08665214
87	0xbdbac54e	-0.09119664
88	0xbdedddd6	-0.116145775
89	0xbdee479f	-0.116347544
90	0x3cb9eb91	0.022695335
91	0xbd9ab6a6	-0.07554369
92	0xbddb8a14	-0.10719696
93	0x3e04b895	0.12961037
94	0x3d2d9b09	0.04238418
95	0x3cdc551c	0.026896052
96	0x3d4e15b6	0.050313674
97	0x3d4166a1	0.047217015
98	0xbdec92c7	-0.11551433
99	0x3d23a53a	0.039952494
100	0xbe7364f0	-0.23768973
101	0xbdd3a0e2	-0.1033342
102	0xbde7aeda	-0.11312647
103	0xbe0b965c	-0.13631576
104	0xbd58c0b8	-0.052918166
105	0x3d3c8865	0.046028513
106	0xbdff412e	-0.12463604
107	0x3d401038	0.046890467
108	0xbb35f61f	-0.0027765108
109	0x3dc43561	0.09580494
110	0xbcadde5b	-0.021224191
111	0xbe4901a3	-0.1962953
112	0xbd71153f	-0.058858152
113	0xbda08406	-0.078376815
114	0xbd798e38	-0.060926646
115	0x3dddea39	0.1083569
116	0xbd5a88f3	-0.05335326
117	0x3d3a3356	0.045459114
118	0xbe40aaa9	-0.18815102
119	0xbd05601f	-0.03256237
120	0x3ceca55e	0.028887447
121	0xbd15306a	-0.036423124
122	0xbd97d896	-0.07414357
123	0xbcab9abd	-0.020947808
124	0x3d5c2427	0.053745415
125	0x3da23ee9	0.079221554
126	0xbe40bac5	-0.18821247
127	0xbe76bb11	-0.24094798
128	0x3e390d26	0.18071422
129	0x3da09b78	0.07842153
130	0x3b292ea6	0.0025815158
131	0xbd5685ce	-0.0523737
132	0xbb91ef96	-0.0044536097
133	0x3dc51c97	0.09624594
134	0x3ce82cda	0.0283417
135	0xbdcf151c	-0.10111448
136	0x3e005271	0.12531449
137	0xbd74ff46	-0.05981376
138	0x3d8aa989	0.067706175
139	0x3d203825	0.039116044
140	0x3db84da8	0.08999187
141	0xbc22556b	-0.009908061
142	0x3e0abde0	0.13548994
143	0x3da123e2	0.07868172
144	0xbbccc1bb	-0.0062486804
145	0xbd1d7454	-0.038441017
146	0xbb96cfba	-0.0046023997
147	0xbdc6526a	-0.09683688
148	0xbd2b9da0	-0.04189837
149	0x3e032839	0.12808312
150	0xbd7e8050	-0.062134087
151	0x3e175976	0.1478022
152	0x3dbdb6fb	0.092634164
153	0x3c113269	0.008862116
154	0x3dbe33b7	0.092872076
155	0x3dcaea01	0.09907914
156	0xbce08d97	-0.027411265
157	0x3e548bd3	0.20756464
158	0xbcb6a023	-0.022293156
159	0x3d3ac76c	0.04560034
160	0xbd9f8856	-0.07789676
161	0xbaa56bee	-0.0012620667
162	0xbdbace9a	-0.09121437
163	0x3e1b09a7	0.15140401
164	0xbe2a64f6	-0.16640076
165	0x3e6256e9	0.22103466
166	0x3c73f552	0.014890032
167	0x3dde8d85	0.108668365
168	0xbd5a62ae	-0.053316765
169	0xbe1128d1	-0.14175726
170	0x3e4c1fea	0.19934049
171	0x3bb9c549	0.00566927
172	0x3e2bc693	0.16774969
173	0xbe4a8fc1	-0.197814
174	0xbc567b6b	-0.013090949
175	0x3da89796	0.08232038
176	0xbe4cd796	-0.20004115
177	0xbdabcc5b	-0.08388587
178	0x3d8dea7d	0.06929491
179	0x3de89244	0.11356023
180	0x3dbb71d8	0.09152573
181	0xbe20258e	-0.15639326
182	0x3d260d14	0.040539816
183	0xbe12a9d1	-0.14322592
184	0x3e0bcd1e	0.13652465
185	0x3d82e903	0.063921
186	0xbda17b49	-0.07884843
187	0x3e016528	0.12636244
188	0x3d913eab	0.07092031
189	0x3df08ed0	0.11745989
190	0x3dee458f	0.11634361
191	0xbd5b53c7	-0.053546693
192	0xbcb04495	-0.021517077
193	0xbdb681d0	-0.089114785
194	0xb9c7591f	-0.00038022638
195	0x3d19e2a8	0.037569672
196	0x3dc3e2d6	0.0956475
197	0x3e66d8ac	0.22543591
198	0x3e67eff0	0.22650123
199	0x3b9b0cf3	0.0047317683
200	0x3d4ba11e	0.0497142
201	0x3d91c6b3	0.07117977
202	0x3d21e937	0.03952905
203	0x3d30113f	0.042985197
204	0x3c9ad3c0	0.018899798
205	0xbc61ace7	-0.013774133
206	0xbde635d7	-0.11240738
207	0x3d683175	0.05668779
208	0x3deb69a2	0.11494757
209	0xbd6dfe91	-0.0581041
210	0x3e0160de	0.12634608
211	0x3dc9c310	0.09851658
212	0x3e19a78d	0.15005322
213	0xbe1be698	-0.15224683
214	0x3cefe858	0.029285595
215	0x3d21400d	0.039367724
216	0x3cdf5311	0.027261289
217	0x3e1fd9a1	0.15610363
218	0x3cf34440	0.02969563
219	0x3d02b0a7	0.03190675
220	0x3deba6ae	0.11506401
221	0x3bbb472f	0.005715273
222	0x3d711f60	0.058867812
223	0xbd9dcb3e	-0.07704781
224	0x3e24edc0	0.1610632
225	0x3db66bad	0.08907256
226	0x3cf179a6	0.029476952
227	0x3dc63331	0.09677733
228	0x3e57d6b5	0.21077998
229	0xbd56c93d	-0.05243801
230	0xbd3cf8e2	-0.04613579
231	0x3e132830	0.14370799
232	0x3d85aba0	0.065268755
233	0x3b632815	0.0034661342
234	0x3d0c3cbf	0.03423762
235	0xbd5b39c8	-0.0535219
236	0x3ddf744e	0.10910855
237	0x3de05fc4	0.10955766
238	0xbc4965af	-0.01229231
239	0xbc781684	-0.015142087
240	0x3cb48b08	0.022038952
241	0x3e2de690	0.16982484
242	0xbc9a42a5	-0.018830607
243	0x3cf50a82	0.029912237
244	0x3d8a7460	0.06760478
245	0xbc04af1f	-0.008098393
246	0x3b54eb63	0.0032488934
247	0x3d813558	0.06309003
248	0x3c3a082e	0.011354489
249	0x3dd5502f	0.104156844
250	0xbba4d6bc	-0.005030481
251	0xbd4ae5db	-0.049535614
252	0xbd38e18c	-0.045136973
253	0xbd6bcefb	-0.05757044
254	0xbb9ad000	-0.0047245026
255	0xbd09274f	-0.033484753

weight f4 [10, 128]
0	0x3e1fe083	0.15612988
1	0x3d05f13d	0.032700766
2	0xbebd8738	-0.37017226
3	0xbe52b642	-0.20577338
4	0x3e39d7cc	0.18148726
5	0x3e457452	0.19282654
6	0xbdd82b62	-0.105551496
7	0x3d6f813c	0.058472857
8	0xbe25c481	-0.16188242
9	0xbda09d3a	-0.078424886
10	0xbe8ccc79	-0.2749975
11	0xbe965cb0	-0.2936759
12	0x3eb28258	0.3486507
13	0xbda4f25b	-0.08054038
14	0x3ee24f5c	0.4420117
15	0xbede4fcf	-0.43420264
16	0xbe8ae7f2	-0.27130085
17	0xbd3e197d	-0.046411026
18	0xbd190e05	-0.037366886
19	0xbe64ae1a	-0.2233204
20	0xbe71eeca	-0.23626247
21	0x3dccd4cc	0.10001525
22	0x3cca9fc1	0.02473438
23	0x3dce82cc	0.10083541
24	0xbd00eed6	-0.03147777
25	0xbdb69b65	-0.08916358
26	0xbea541de	-0.32276815
27	0xbe3fb292	-0.18720463
28	0x3ef2586f	0.47333094
29	0x3d3675f1	0.04454607
30	0xbe583039	-0.21112145
31	0xbe24d24b	-0.16095845
32	0xbe687cf3	-0.22703914
33	0x3e261c97	0.16221844
34	0x3da7bd84	0.08190444
35	0x3e1a6d56	0.15080771
36	0x3ecdec3d	0.40219298
37	0x3b8d6494	0.0043149684
38	0x3d5477da	0.05187211
39	0x3e0be42b	0.13661258
40	0xbe028151	-0.12744643
41	0x3dabcdd7	0.0838887
42	0xbe028cf1	-0.12749077
43	0xbd631845	-0.055443067
44	0x3ec4a693	0.38408336
45	0x3d66b321	0.056323174
46	0x3e0e406b	0.13891761
47	0x3e9d245b	0.306918
48	0xbc3d91bb	-0.011570389
49	0xbe37abb7	-0.17936598
50	0x3ee0d194	0.43909895
51	0xbde59728	-0.112104714
52	0xbd5f2374	-0.05447717
53	0xbde17ce7	-0.11010151
54	0x3eabbe9b	0.33543858
55	0xbd3c87ff	-0.046028133
56	0xbd7bf619	-0.061513994
57	0xbd75ccc4	-0.060009733
58	0xbec82a72	-0.39094883
59	0xbebff4d0	-0.37491465
60	0x3b87f860	0.0041494817
61	0xbed56c06	-0.41683978
62	0xbde15b16	-0.110037014
63	0x3dd640b3	0.10461559
64	0x3e21eb82	0.15812495
65	0x3e9777b3	0.2958351
66	0xbc0711f1	-0.008244024
67	0x3e9acc97	0.30234215
68	0x3daac6ce	0.083387
69	0x3e2e071c	0.169949
70	0x3e1a570c	0.15072268
71	0xbedb68d2	-0.4285341
72	0x3f0a3562	0.53987706
73	0x3e6e57b9	0.23275651
74	0xbd28e120	-0.04123032
75	0x3ead3cbb	0.33835396
76	0xbedfa011	-0.43676808
77	0x3e0559b0	0.13022494
78	0xbe368f79	-0.17828168
79	0xbdbbbee6	-0.0916727
80	0x3d1aa502	0.03775502
81	0xbe182543	-0.14857964
82	0x3cc55113	0.02408651
83	0xbf029c99	-0.510202
84	0xbc9a603c	-0.018844716
85	0x3ef24e34	0.4732529
86	0xbec7cbc3	-0.39022645
87	0x3df7ae4d	0.12093792
88	0x3ea39a3b	0.31953606
89	0xbe68ccd0	-0.2273438
90	0xbdf8e5aa	-0.1215318
91	0x3d1daaf1	0.0384931
92	0x3d242046	0.04006984
93	0x3dadbce4	0.08483294
94	0x3d895d38	0.06707233
95	0x3e32ceb7	0.17461668
96	0xbed50239	-0.41603258
97	0xbdfcd769	-0.12345774
98	0x3e01bae6	0.12668952
99	0x3ddf012e	0.10888897
100	0x3dbdd68d	0.09269438
101	0xbe677bec	-0.22605866
102	0x3e87063b	0.2637194
103	0xbc6a9711	-0.014318244
104	0x3eb35f80	0.35033798
105	0x3daeb447	0.08530479
106	0xbec9ea55	-0.39436594
107	0xbddd2afe	-0.10799216
108	0xbe7b639d	-0.24549718
109	0x3e9dc50e	0.30814403
110	0x3dcf1ce7	0.101129346
111	0x3e4abc9a	0.19798508
112	0xbe94fb7f	-0.29098126
113	0x3e2ec7b4	0.17068368
114	0xbea3bb7d	-0.3197898
115	0x3dfc4c2c	0.12319216
116	0x3ebede0c	0.37278783
117	0xbe1960fe	-0.14978406
118	0x3cb514ea	0.0221047
119	0x3f223b53	0.6337177
120	0x3df76446	0.120796725
121	0x3e1805cf	0.14845966
122	0x3b589727	0.0033049078
123	0xbcd42f69	-0.025901513
124	0xbe00acac	-0.12565869
125	0x3dc4488f	0.09584152
126	0xbd9e8450	-0.0774008
127	0x3e80bfde	0.25146383
128	0xbd840133	-0.06445541
129	0x3f307a03	0.68936175
130	0xbdd574a4	-0.10422638
131	0x3d9cfc28	0.076652825
132	0xbe1e76f4	-0.15475065
133	0xbe567a61	-0.20945121
134	0x3e910f21	0.28331855
135	0x3e9f52f7	0.31117985
136	0x3b1fa336	0.0024358756
137	0x3e79fab6	0.24412045
138	0xbe020d1e	-0.12700316
139	0x3e35530c	0.17707461
140	0xbe0d9254	-0.13825351
141	0xbe7db052	-0.24774292
142	0x3c8198b4	0.015819885
143	0x3ee001bd	0.43751326
144	0x3e94b9e7	0.29048082
145	0xbe26676d	-0.16250391
146	0xbd6344f0	-0.055485666
147	0xbedbc3ff	-0.4292297
148	0x3d99d160	0.07510638
149	0x3d335a02	0.04378701
150	0xbe2be29e	-0.16785666
151	0x3cf7e4d0	0.030260473
152	0xbe8c3296	-0.27382344
153	0xbc860dcb	-0.016363999
154	0xbed340eb	-0.41260466
155	0xbdec9937	-0.11552661
156	0x3e62e637	0.22158132
157	0xbeebd8dd	-0.4606389
158	0x3e05777b	0.1303386
159	0x3e6bcd3f	0.23027514
160	0xbd044ecf	-0.03230172
161	0xbd116f60	-0.035506606
162	0x3e8c5915	0.27411714
163	0xbea31660	-0.31853008
164	0xbe22a605	-0.15883644
165	0x3eb8b7af	0.3607764
166	0xbdd94f2d	-0.10610805
167	0xbe122bb0	-0.14274478
168	0xbe690d46	-0.2275897
169	0xbdb7fb7d	-0.089835145
170	0x3da3ea8a	0.08003719
171	0x3e889975	0.26679578
172	0xbcd9c5a0	-0.026583493
173	0xbec06d8f	-0.37583587
174	0xbe6f2cfe	-0.23357007
175	0xbec8e79c	-0.39239204
176	0xbe856fb8	-0.26061797
177	0x3eb0da54	0.3454157
178	0x3e41b087	0.18914996
179	0x3e9dd0af	0.30823275
180	0xbe3fb741	-0.1872225
181	0x3e3ed2d3	0.1863511
182	0xbe5ae73b	-0.2137727
183	0xbc757834	-0.014982272
184	0x3da1597e	0.078783974
185	0x3ed4293c	0.4143771
186	0x3e8c5c70	0.27414274
187	0x3e32a6e1	0.17446472
188	0x3d76e01d	0.060272325
189	0x3e734fb8	0.23760879
190	0x3e863a4c	0.26216352
191	0x3e5ec767	0.21755753
192	0xbeb1996d	-0.34687367
193	0x3e1105ec	0.14162415
194	0x3eb89eb6	0.36058587
195	0xbe30a05d	-0.17248674
196	0xbeeed2d5	-0.46645227
197	0xbe658e0f	-0.22417472
198	0xbe1fffc5	-0.15624912
199	0x3e336ef9	0.17522801
200	0x3e01088a	0.12600914
201	0xbd9bd853	-0.0760962
202	0xbdb85143	-0.089998744
203	0xbe14b53d	-0.14522262
204	0x3e989d86	0.2980768
205	0xbec09533	-0.3761383
206	0x3e87e303	0.26540384
207	0xbd9c5763	-0.07633855
208	0xbe74869b	-0.23879473
209	0xbe8c436f	-0.27395198
210	0x3e046fa6	0.12933215
211	0x3db2f137	0.08737414
212	0x3b12b1f8	0.002238391
213	0xbe09ed5e	-0.13469455
214	0xbecf398e	-0.40473598
215	0x3db30cb4	0.08742657
216	0x3ed85d8b	0.42258868
217	0x3d159587	0.036519554
218	0x3eb8973a	0.36052877
219	0x3e0db7fc	0.13839716
220	0xbeb5bfed	-0.3549799
221	0x3d17bfa2	0.03704799
222	0x3e8007f8	0.2500608
223	0xbe77cb15	-0.24198563
224	0x3e54a201	0.20764925
225	0x3e968d1b	0.2940453
226	0xbef18014	-0.47168028
227	0xbe0d6549	-0.13808168
228	0xbec89e66	-0.39183348
229	0x3ea8db04	0.32979596
230	0xbe5ed98e	-0.21762678
231	0x3eaf6296	0.34254903
232	0xbcce31dd	-0.025170261
233	0x3d85df66	0.065367505
234	0x3e24ecbe	0.16105935
235	0xbc8e710d	-0.017387891
236	0x3c63c3d5	0.01390167
237	0xbe587d1b	-0.21141474
238	0x3d092c72	0.033489652
239	0xbe86c900	-0.26325226
240	0xbe86d944	-0.26337636
241	0xbe878401	-0.26467898
242	0x3da0ee94	0.07858005
243	0x3e5c4320	0.21509981
244	0xbe11dbbc	-0.14243978
245	0xbe3085b8	-0.1723851
246	0xbe545ce6	-0.20738563
247	0xbd376a8f	-0.044779357
248	0xbd2ca97e	-0.042153828
249	0xbd82786a	-0.063706234
250	0xbccd1cb1	-0.025038095
251	0x3e305378	0.17219341
252	0x3ec52c58	0.38510394
253	0x3e1198eb	0.1421849
254	0x3ef0e4a5	0.47049442
255	0x3e3bbdf0	0.18334174

bias f4 [10]
0	0xbe4f6452	-0.20253113
1	0x3da8cec9	0.08242566
2	0x3c9f88d7	0.01947443
3	0x3e585c7a	0.21129027
4	0x3d79021a	0.06079302
5	0x3e09c44a	0.13453785
6	0xbe5213d4	-0.20515376
7	0x3e12f21a	0.14350167
8	0xbdcf3451	-0.101174004
9	0x3db87a58	0.0900771
